…
/cluster/apps/python/3.6.4/lib64/python3.6/site-packages/h5py/__init__.py:36: FutureWarning: Conversion of the second argument of issubdtype from `float` to `np.floating` is deprecated. In future, it will be treated as `np.float64 == np.dtype(float).type`.
  from ._conv import register_converters as _register_converters
Searching for images in /cluster/home/woonmi/dataset/cil-cosmology-2018/cosmology_aux_data_170429/query
Model: "till_model"
_________________________________________________________________
Layer (type)                 Output Shape              Param #   
=================================================================
res_block (ResBlock)         (None, 500, 500, 8)       1928      
_________________________________________________________________
res_block_1 (ResBlock)       (None, 250, 250, 16)      8320      
_________________________________________________________________
padder (Padder)              (None, 256, 256, 16)      0         
_________________________________________________________________
res_block_2 (ResBlock)       (None, 128, 128, 32)      32768     
_________________________________________________________________
res_block_3 (ResBlock)       (None, 64, 64, 32)        37376     
_________________________________________________________________
res_block_4 (ResBlock)       (None, 32, 32, 32)        37376     
_________________________________________________________________
res_block_5 (ResBlock)       (None, 16, 16, 32)        37376     
_________________________________________________________________
res_block_6 (ResBlock)       (None, 8, 8, 32)          37376     
_________________________________________________________________
res_block_7 (ResBlock)       (None, 4, 4, 32)          37376     
_________________________________________________________________
flatten (Flatten)            (None, 512)               0         
_________________________________________________________________
dropout (Dropout)            (None, 512)               0         
_________________________________________________________________
dense (Dense)                (None, 1)                 512       
=================================================================
Total params: 230,408
Trainable params: 228,680
Non-trainable params: 1,728
_________________________________________________________________
Found Labels
Loaded image 1/1200Loaded image 2/1200Loaded image 3/1200Loaded image 4/1200Loaded image 5/1200Loaded image 6/1200Loaded image 7/1200Loaded image 8/1200Loaded ima
…
