Model: "till_model"
_________________________________________________________________
Layer (type)                 Output Shape              Param #   
=================================================================
padder (Padder)              (None, 128, 128, 1)       0         
_________________________________________________________________
conv2d (Conv2D)              (None, 64, 64, 4)         36        
_________________________________________________________________
pixel_norm (Pixel_norm)      (None, 64, 64, 4)         0         
_________________________________________________________________
leaky_re_lu (LeakyReLU)      (None, 64, 64, 4)         0         
_________________________________________________________________
conv2d_1 (Conv2D)            (None, 64, 64, 4)         144       
_________________________________________________________________
pixel_norm_1 (Pixel_norm)    (None, 64, 64, 4)         0         
_________________________________________________________________
leaky_re_lu_1 (LeakyReLU)    (None, 64, 64, 4)         0         
_________________________________________________________________
conv2d_2 (Conv2D)            (None, 64, 64, 4)         144       
_________________________________________________________________
pixel_norm_2 (Pixel_norm)    (None, 64, 64, 4)         0         
_________________________________________________________________
leaky_re_lu_2 (LeakyReLU)    (None, 64, 64, 4)         0         
_________________________________________________________________
conv2d_3 (Conv2D)            (None, 32, 32, 8)         288       
_________________________________________________________________
pixel_norm_3 (Pixel_norm)    (None, 32, 32, 8)         0         
_________________________________________________________________
leaky_re_lu_3 (LeakyReLU)    (None, 32, 32, 8)         0         
_________________________________________________________________
conv2d_4 (Conv2D)            (None, 32, 32, 8)         576       
_________________________________________________________________
pixel_norm_4 (Pixel_norm)    (None, 32, 32, 8)         0         
_________________________________________________________________
leaky_re_lu_4 (LeakyReLU)    (None, 32, 32, 8)         0         
_________________________________________________________________
conv2d_5 (Conv2D)            (None, 32, 32, 8)         576       
_________________________________________________________________
pixel_norm_5 (Pixel_norm)    (None, 32, 32, 8)         0         
_________________________________________________________________
leaky_re_lu_5 (LeakyReLU)    (None, 32, 32, 8)         0         
_________________________________________________________________
conv2d_6 (Conv2D)            (None, 16, 16, 16)        1152      
_________________________________________________________________
pixel_norm_6 (Pixel_norm)    (None, 16, 16, 16)        0         
_________________________________________________________________
leaky_re_lu_6 (LeakyReLU)    (None, 16, 16, 16)        0         
_________________________________________________________________
conv2d_7 (Conv2D)            (None, 16, 16, 16)        2304      
_________________________________________________________________
pixel_norm_7 (Pixel_norm)    (None, 16, 16, 16)        0         
_________________________________________________________________
leaky_re_lu_7 (LeakyReLU)    (None, 16, 16, 16)        0         
_________________________________________________________________
conv2d_8 (Conv2D)            (None, 16, 16, 16)        2304      
_________________________________________________________________
pixel_norm_8 (Pixel_norm)    (None, 16, 16, 16)        0         
_________________________________________________________________
leaky_re_lu_8 (LeakyReLU)    (None, 16, 16, 16)        0         
_________________________________________________________________
conv2d_9 (Conv2D)            (None, 8, 8, 32)          4608      
_________________________________________________________________
pixel_norm_9 (Pixel_norm)    (None, 8, 8, 32)          0         
_________________________________________________________________
leaky_re_lu_9 (LeakyReLU)    (None, 8, 8, 32)          0         
_________________________________________________________________
conv2d_10 (Conv2D)           (None, 8, 8, 32)          9216      
_________________________________________________________________
pixel_norm_10 (Pixel_norm)   (None, 8, 8, 32)          0         
_________________________________________________________________
leaky_re_lu_10 (LeakyReLU)   (None, 8, 8, 32)          0         
_________________________________________________________________
conv2d_11 (Conv2D)           (None, 8, 8, 32)          9216      
_________________________________________________________________
pixel_norm_11 (Pixel_norm)   (None, 8, 8, 32)          0         
_________________________________________________________________
leaky_re_lu_11 (LeakyReLU)   (None, 8, 8, 32)          0         
_________________________________________________________________
conv2d_12 (Conv2D)           (None, 4, 4, 32)          9216      
_________________________________________________________________
pixel_norm_12 (Pixel_norm)   (None, 4, 4, 32)          0         
_________________________________________________________________
leaky_re_lu_12 (LeakyReLU)   (None, 4, 4, 32)          0         
_________________________________________________________________
conv2d_13 (Conv2D)           (None, 4, 4, 32)          9216      
_________________________________________________________________
pixel_norm_13 (Pixel_norm)   (None, 4, 4, 32)          0         
_________________________________________________________________
leaky_re_lu_13 (LeakyReLU)   (None, 4, 4, 32)          0         
_________________________________________________________________
conv2d_14 (Conv2D)           (None, 4, 4, 32)          9216      
_________________________________________________________________
pixel_norm_14 (Pixel_norm)   (None, 4, 4, 32)          0         
_________________________________________________________________
leaky_re_lu_14 (LeakyReLU)   (None, 4, 4, 32)          0         
_________________________________________________________________
flatten (Flatten)            (None, 512)               0         
_________________________________________________________________
dense (Dense)                (None, 32)                16384     
_________________________________________________________________
pixel_norm_15 (Pixel_norm)   (None, 32)                0         
_________________________________________________________________
leaky_re_lu_15 (LeakyReLU)   (None, 32)                0         
_________________________________________________________________
dropout (Dropout)            (None, 32)                0         
_________________________________________________________________
dense_1 (Dense)              (None, 1)                 32        
_________________________________________________________________
sigmoid_layer (SigmoidLayer) (None, 1)                 0         
_________________________________________________________________
factor_layer (FactorLayer)   (None, 1)                 0         
=================================================================
Total params: 74,628
Trainable params: 74,628
Non-trainable params: 0
_________________________________________________________________
