…
/cluster/apps/python/3.6.4/lib64/python3.6/site-packages/h5py/__init__.py:36: FutureWarning: Conversion of the second argument of issubdtype from `float` to `np.floating` is deprecated. In future, it will be treated as `np.float64 == np.dtype(float).type`.
  from ._conv import register_converters as _register_converters
2.0.0-alpha0
Searching for images in /cluster/home/woonmi/dataset/cil-cosmology-2018/cosmology_aux_data_170429/query
Found Labels
Model: "till_model"
_________________________________________________________________
Layer (type)                 Output Shape              Param #   
=================================================================
conv2d (Conv2D)              (None, 500, 500, 4)       36        
_________________________________________________________________
batch_normalization_v2 (Batc (None, 500, 500, 4)       16        
_________________________________________________________________
leaky_re_lu (LeakyReLU)      (None, 500, 500, 4)       0         
_________________________________________________________________
conv2d_1 (Conv2D)            (None, 500, 500, 4)       144       
_________________________________________________________________
batch_normalization_v2_1 (Ba (None, 500, 500, 4)       16        
_________________________________________________________________
leaky_re_lu_1 (LeakyReLU)    (None, 500, 500, 4)       0         
_________________________________________________________________
conv2d_2 (Conv2D)            (None, 500, 500, 4)       144       
_________________________________________________________________
batch_normalization_v2_2 (Ba (None, 500, 500, 4)       16        
_________________________________________________________________
leaky_re_lu_2 (LeakyReLU)    (None, 500, 500, 4)       0         
_________________________________________________________________
conv2d_3 (Conv2D)            (None, 250, 250, 8)       288       
_________________________________________________________________
batch_normalization_v2_3 (Ba (None, 250, 250, 8)       32        
_________________________________________________________________
leaky_re_lu_3 (LeakyReLU)    (None, 250, 250, 8)       0         
_________________________________________________________________
conv2d_4 (Conv2D)            (None, 250, 250, 8)       576       
_________________________________________________________________
batch_normalization_v2_4 (Ba (None, 250, 250, 8)       32        
_________________________________________________________________
leaky_re_lu_4 (LeakyReLU)    (None, 250, 250, 8)       0         
_________________________________________________________________
conv2d_5 (Conv2D)            (None, 250, 250, 8)       576       
_________________________________________________________________
batch_normalization_v2_5 (Ba (None, 250, 250, 8)       32        
_________________________________________________________________
leaky_re_lu_5 (LeakyReLU)    (None, 250, 250, 8)       0         
_________________________________________________________________
conv2d_6 (Conv2D)            (None, 125, 125, 16)      1152      
_________________________________________________________________
batch_normalization_v2_6 (Ba (None, 125, 125, 16)      64        
_________________________________________________________________
leaky_re_lu_6 (LeakyReLU)    (None, 125, 125, 16)      0         
_________________________________________________________________
conv2d_7 (Conv2D)            (None, 125, 125, 16)      2304      
_________________________________________________________________
batch_normalization_v2_7 (Ba (None, 125, 125, 16)      64        
_________________________________________________________________
leaky_re_lu_7 (LeakyReLU)    (None, 125, 125, 16)      0         
_________________________________________________________________
conv2d_8 (Conv2D)            (None, 125, 125, 16)      2304      
_________________________________________________________________
batch_normalization_v2_8 (Ba (None, 125, 125, 16)      64        
_________________________________________________________________
leaky_re_lu_8 (LeakyReLU)    (None, 125, 125, 16)      0         
_________________________________________________________________
padder (Padder)              (None, 128, 128, 16)      0         
_________________________________________________________________
conv2d_9 (Conv2D)            (None, 64, 64, 32)        4608      
_________________________________________________________________
batch_normalization_v2_9 (Ba (None, 64, 64, 32)        128       
_________________________________________________________________
leaky_re_lu_9 (LeakyReLU)    (None, 64, 64, 32)        0         
_________________________________________________________________
conv2d_10 (Conv2D)           (None, 64, 64, 32)        9216      
_________________________________________________________________
batch_normalization_v2_10 (B (None, 64, 64, 32)        128       
_________________________________________________________________
leaky_re_lu_10 (LeakyReLU)   (None, 64, 64, 32)        0         
_________________________________________________________________
conv2d_11 (Conv2D)           (None, 64, 64, 32)        9216      
_________________________________________________________________
batch_normalization_v2_11 (B (None, 64, 64, 32)        128       
_________________________________________________________________
leaky_re_lu_11 (LeakyReLU)   (None, 64, 64, 32)        0         
_________________________________________________________________
conv2d_12 (Conv2D)           (None, 32, 32, 32)        9216      
_________________________________________________________________
batch_normalization_v2_12 (B (None, 32, 32, 32)        128       
_________________________________________________________________
leaky_re_lu_12 (LeakyReLU)   (None, 32, 32, 32)        0         
_________________________________________________________________
conv2d_13 (Conv2D)           (None, 32, 32, 32)        9216      
_________________________________________________________________
batch_normalization_v2_13 (B (None, 32, 32, 32)        128       
_________________________________________________________________
leaky_re_lu_13 (LeakyReLU)   (None, 32, 32, 32)        0         
_________________________________________________________________
conv2d_14 (Conv2D)           (None, 32, 32, 32)        9216      
_________________________________________________________________
batch_normalization_v2_14 (B (None, 32, 32, 32)        128       
_________________________________________________________________
leaky_re_lu_14 (LeakyReLU)   (None, 32, 32, 32)        0         
_________________________________________________________________
conv2d_15 (Conv2D)           (None, 16, 16, 32)        9216      
_________________________________________________________________
batch_normalization_v2_15 (B (None, 16, 16, 32)        128       
_________________________________________________________________
leaky_re_lu_15 (LeakyReLU)   (None, 16, 16, 32)        0         
_________________________________________________________________
conv2d_16 (Conv2D)           (None, 16, 16, 32)        9216      
_________________________________________________________________
batch_normalization_v2_16 (B (None, 16, 16, 32)        128       
_________________________________________________________________
leaky_re_lu_16 (LeakyReLU)   (None, 16, 16, 32)        0         
_________________________________________________________________
conv2d_17 (Conv2D)           (None, 16, 16, 32)        9216      
_________________________________________________________________
batch_normalization_v2_17 (B (None, 16, 16, 32)        128       
_________________________________________________________________
leaky_re_lu_17 (LeakyReLU)   (None, 16, 16, 32)        0         
_________________________________________________________________
conv2d_18 (Conv2D)           (None, 8, 8, 32)          9216      
_________________________________________________________________
batch_normalization_v2_18 (B (None, 8, 8, 32)          128       
_________________________________________________________________
leaky_re_lu_18 (LeakyReLU)   (None, 8, 8, 32)          0         
_________________________________________________________________
conv2d_19 (Conv2D)           (None, 8, 8, 32)          9216      
_________________________________________________________________
batch_normalization_v2_19 (B (None, 8, 8, 32)          128       
_________________________________________________________________
leaky_re_lu_19 (LeakyReLU)   (None, 8, 8, 32)          0         
_________________________________________________________________
conv2d_20 (Conv2D)           (None, 8, 8, 32)          9216      
_________________________________________________________________
batch_normalization_v2_20 (B (None, 8, 8, 32)          128       
_________________________________________________________________
leaky_re_lu_20 (LeakyReLU)   (None, 8, 8, 32)          0         
_________________________________________________________________
conv2d_21 (Conv2D)           (None, 4, 4, 32)          9216      
_________________________________________________________________
batch_normalization_v2_21 (B (None, 4, 4, 32)          128       
_________________________________________________________________
leaky_re_lu_21 (LeakyReLU)   (None, 4, 4, 32)          0         
_________________________________________________________________
conv2d_22 (Conv2D)           (None, 4, 4, 32)          9216      
_________________________________________________________________
batch_normalization_v2_22 (B (None, 4, 4, 32)          128       
_________________________________________________________________
leaky_re_lu_22 (LeakyReLU)   (None, 4, 4, 32)          0         
_________________________________________________________________
conv2d_23 (Conv2D)           (None, 4, 4, 32)          9216      
_________________________________________________________________
batch_normalization_v2_23 (B (None, 4, 4, 32)          128       
_________________________________________________________________
leaky_re_lu_23 (LeakyReLU)   (None, 4, 4, 32)          0         
_________________________________________________________________
flatten (Flatten)            (None, 512)               0         
_________________________________________________________________
dropout (Dropout)            (None, 512)               0         
_________________________________________________________________
dense (Dense)                (None, 1)                 512       
=================================================================
Total params: 143,924
Trainable params: 142,796
Non-trainable params: 1,128
_________________________________________________________________
Loaded image 1/1200Loaded image 2/1200Loaded image 3/1200Loaded image 4/1200Loaded image 5/1200Loaded image 6/1200Loaded image 7/1200Loaded image 8/1200Loaded image 9/1200Loa
…
2019-06-24 01:14:19.967919: I tensorflow/core/common_runtime/gpu/gpu_device.cc:1149] Created TensorFlow device (/job:localhost/replica:0/task:0/device:GPU:0 with 30555 MB memory) -> physical GPU (device: 0, name: Tesla V100-SXM2-32GB, pci bus id: 0000:06:00.0, compute capability: 7.0)
2.0.0-alpha0
Searching for images in /cluster/home/woonmi/dataset/cil-cosmology-2018/cosmology_aux_data_170429/scored
Found Labels
Model: "till_model"
_________________________________________________________________
Layer (type)                 Output Shape              Param #   
=================================================================
conv2d (Conv2D)              (None, 500, 500, 4)       36        
_________________________________________________________________
batch_normalization_v2 (Batc (None, 500, 500, 4)       16        
_________________________________________________________________
leaky_re_lu (LeakyReLU)      (None, 500, 500, 4)       0         
_________________________________________________________________
conv2d_1 (Conv2D)            (None, 500, 500, 4)       144       
_________________________________________________________________
batch_normalization_v2_1 (Ba (None, 500, 500, 4)       16        
_________________________________________________________________
leaky_re_lu_1 (LeakyReLU)    (None, 500, 500, 4)       0         
_________________________________________________________________
conv2d_2 (Conv2D)            (None, 500, 500, 4)       144       
_________________________________________________________________
batch_normalization_v2_2 (Ba (None, 500, 500, 4)       16        
_________________________________________________________________
leaky_re_lu_2 (LeakyReLU)    (None, 500, 500, 4)       0         
_________________________________________________________________
conv2d_3 (Conv2D)            (None, 250, 250, 8)       288       
_________________________________________________________________
batch_normalization_v2_3 (Ba (None, 250, 250, 8)       32        
_________________________________________________________________
leaky_re_lu_3 (LeakyReLU)    (None, 250, 250, 8)       0         
_________________________________________________________________
conv2d_4 (Conv2D)            (None, 250, 250, 8)       576       
_________________________________________________________________
batch_normalization_v2_4 (Ba (None, 250, 250, 8)       32        
_________________________________________________________________
leaky_re_lu_4 (LeakyReLU)    (None, 250, 250, 8)       0         
_________________________________________________________________
conv2d_5 (Conv2D)            (None, 250, 250, 8)       576       
_________________________________________________________________
batch_normalization_v2_5 (Ba (None, 250, 250, 8)       32        
_________________________________________________________________
leaky_re_lu_5 (LeakyReLU)    (None, 250, 250, 8)       0         
_________________________________________________________________
conv2d_6 (Conv2D)            (None, 125, 125, 16)      1152      
_________________________________________________________________
batch_normalization_v2_6 (Ba (None, 125, 125, 16)      64        
_________________________________________________________________
leaky_re_lu_6 (LeakyReLU)    (None, 125, 125, 16)      0         
_________________________________________________________________
conv2d_7 (Conv2D)            (None, 125, 125, 16)      2304      
_________________________________________________________________
batch_normalization_v2_7 (Ba (None, 125, 125, 16)      64        
_________________________________________________________________
leaky_re_lu_7 (LeakyReLU)    (None, 125, 125, 16)      0         
_________________________________________________________________
conv2d_8 (Conv2D)            (None, 125, 125, 16)      2304      
_________________________________________________________________
batch_normalization_v2_8 (Ba (None, 125, 125, 16)      64        
_________________________________________________________________
leaky_re_lu_8 (LeakyReLU)    (None, 125, 125, 16)      0         
_________________________________________________________________
padder (Padder)              (None, 128, 128, 16)      0         
_________________________________________________________________
conv2d_9 (Conv2D)            (None, 64, 64, 32)        4608      
_________________________________________________________________
batch_normalization_v2_9 (Ba (None, 64, 64, 32)        128       
_________________________________________________________________
leaky_re_lu_9 (LeakyReLU)    (None, 64, 64, 32)        0         
_________________________________________________________________
conv2d_10 (Conv2D)           (None, 64, 64, 32)        9216      
_________________________________________________________________
batch_normalization_v2_10 (B (None, 64, 64, 32)        128       
_________________________________________________________________
leaky_re_lu_10 (LeakyReLU)   (None, 64, 64, 32)        0         
_________________________________________________________________
conv2d_11 (Conv2D)           (None, 64, 64, 32)        9216      
_________________________________________________________________
batch_normalization_v2_11 (B (None, 64, 64, 32)        128       
_________________________________________________________________
leaky_re_lu_11 (LeakyReLU)   (None, 64, 64, 32)        0         
_________________________________________________________________
conv2d_12 (Conv2D)           (None, 32, 32, 32)        9216      
_________________________________________________________________
batch_normalization_v2_12 (B (None, 32, 32, 32)        128       
_________________________________________________________________
leaky_re_lu_12 (LeakyReLU)   (None, 32, 32, 32)        0         
_________________________________________________________________
conv2d_13 (Conv2D)           (None, 32, 32, 32)        9216      
_________________________________________________________________
batch_normalization_v2_13 (B (None, 32, 32, 32)        128       
_________________________________________________________________
leaky_re_lu_13 (LeakyReLU)   (None, 32, 32, 32)        0         
_________________________________________________________________
conv2d_14 (Conv2D)           (None, 32, 32, 32)        9216      
_________________________________________________________________
batch_normalization_v2_14 (B (None, 32, 32, 32)        128       
_________________________________________________________________
leaky_re_lu_14 (LeakyReLU)   (None, 32, 32, 32)        0         
_________________________________________________________________
conv2d_15 (Conv2D)           (None, 16, 16, 32)        9216      
_________________________________________________________________
batch_normalization_v2_15 (B (None, 16, 16, 32)        128       
_________________________________________________________________
leaky_re_lu_15 (LeakyReLU)   (None, 16, 16, 32)        0         
_________________________________________________________________
conv2d_16 (Conv2D)           (None, 16, 16, 32)        9216      
_________________________________________________________________
batch_normalization_v2_16 (B (None, 16, 16, 32)        128       
_________________________________________________________________
leaky_re_lu_16 (LeakyReLU)   (None, 16, 16, 32)        0         
_________________________________________________________________
conv2d_17 (Conv2D)           (None, 16, 16, 32)        9216      
_________________________________________________________________
batch_normalization_v2_17 (B (None, 16, 16, 32)        128       
_________________________________________________________________
leaky_re_lu_17 (LeakyReLU)   (None, 16, 16, 32)        0         
_________________________________________________________________
conv2d_18 (Conv2D)           (None, 8, 8, 32)          9216      
_________________________________________________________________
batch_normalization_v2_18 (B (None, 8, 8, 32)          128       
_________________________________________________________________
leaky_re_lu_18 (LeakyReLU)   (None, 8, 8, 32)          0         
_________________________________________________________________
conv2d_19 (Conv2D)           (None, 8, 8, 32)          9216      
_________________________________________________________________
batch_normalization_v2_19 (B (None, 8, 8, 32)          128       
_________________________________________________________________
leaky_re_lu_19 (LeakyReLU)   (None, 8, 8, 32)          0         
_________________________________________________________________
conv2d_20 (Conv2D)           (None, 8, 8, 32)          9216      
_________________________________________________________________
batch_normalization_v2_20 (B (None, 8, 8, 32)          128       
_________________________________________________________________
leaky_re_lu_20 (LeakyReLU)   (None, 8, 8, 32)          0         
_________________________________________________________________
conv2d_21 (Conv2D)           (None, 4, 4, 32)          9216      
_________________________________________________________________
batch_normalization_v2_21 (B (None, 4, 4, 32)          128       
_________________________________________________________________
leaky_re_lu_21 (LeakyReLU)   (None, 4, 4, 32)          0         
_________________________________________________________________
conv2d_22 (Conv2D)           (None, 4, 4, 32)          9216      
_________________________________________________________________
batch_normalization_v2_22 (B (None, 4, 4, 32)          128       
_________________________________________________________________
leaky_re_lu_22 (LeakyReLU)   (None, 4, 4, 32)          0         
_________________________________________________________________
conv2d_23 (Conv2D)           (None, 4, 4, 32)          9216      
_________________________________________________________________
batch_normalization_v2_23 (B (None, 4, 4, 32)          128       
_________________________________________________________________
leaky_re_lu_23 (LeakyReLU)   (None, 4, 4, 32)          0         
_________________________________________________________________
flatten (Flatten)            (None, 512)               0         
_________________________________________________________________
dropout (Dropout)            (None, 512)               0         
_________________________________________________________________
dense (Dense)                (None, 1)                 512       
=================================================================
Total params: 143,924
Trainable params: 142,796
Non-trainable params: 1,128
_________________________________________________________________
Model: "till_model"
_________________________________________________________________
Layer (type)                 Output Shape              Param #   
=================================================================
conv2d (Conv2D)              (None, 500, 500, 4)       36        
_________________________________________________________________
batch_normalization_v2 (Batc (None, 500, 500, 4)       16        
_________________________________________________________________
leaky_re_lu (LeakyReLU)      (None, 500, 500, 4)       0         
_________________________________________________________________
conv2d_1 (Conv2D)            (None, 500, 500, 4)       144       
_________________________________________________________________
batch_normalization_v2_1 (Ba (None, 500, 500, 4)       16        
_________________________________________________________________
leaky_re_lu_1 (LeakyReLU)    (None, 500, 500, 4)       0         
_________________________________________________________________
conv2d_2 (Conv2D)            (None, 500, 500, 4)       144       
_________________________________________________________________
batch_normalization_v2_2 (Ba (None, 500, 500, 4)       16        
_________________________________________________________________
leaky_re_lu_2 (LeakyReLU)    (None, 500, 500, 4)       0         
_________________________________________________________________
conv2d_3 (Conv2D)            (None, 250, 250, 8)       288       
_________________________________________________________________
batch_normalization_v2_3 (Ba (None, 250, 250, 8)       32        
_________________________________________________________________
leaky_re_lu_3 (LeakyReLU)    (None, 250, 250, 8)       0         
_________________________________________________________________
conv2d_4 (Conv2D)            (None, 250, 250, 8)       576       
_________________________________________________________________
batch_normalization_v2_4 (Ba (None, 250, 250, 8)       32        
_________________________________________________________________
leaky_re_lu_4 (LeakyReLU)    (None, 250, 250, 8)       0         
_________________________________________________________________
conv2d_5 (Conv2D)            (None, 250, 250, 8)       576       
_________________________________________________________________
batch_normalization_v2_5 (Ba (None, 250, 250, 8)       32        
_________________________________________________________________
leaky_re_lu_5 (LeakyReLU)    (None, 250, 250, 8)       0         
_________________________________________________________________
conv2d_6 (Conv2D)            (None, 125, 125, 16)      1152      
_________________________________________________________________
batch_normalization_v2_6 (Ba (None, 125, 125, 16)      64        
_________________________________________________________________
leaky_re_lu_6 (LeakyReLU)    (None, 125, 125, 16)      0         
_________________________________________________________________
conv2d_7 (Conv2D)            (None, 125, 125, 16)      2304      
_________________________________________________________________
batch_normalization_v2_7 (Ba (None, 125, 125, 16)      64        
_________________________________________________________________
leaky_re_lu_7 (LeakyReLU)    (None, 125, 125, 16)      0         
_________________________________________________________________
conv2d_8 (Conv2D)            (None, 125, 125, 16)      2304      
_________________________________________________________________
batch_normalization_v2_8 (Ba (None, 125, 125, 16)      64        
_________________________________________________________________
leaky_re_lu_8 (LeakyReLU)    (None, 125, 125, 16)      0         
_________________________________________________________________
padder (Padder)              (None, 128, 128, 16)      0         
_________________________________________________________________
conv2d_9 (Conv2D)            (None, 64, 64, 32)        4608      
_________________________________________________________________
batch_normalization_v2_9 (Ba (None, 64, 64, 32)        128       
_________________________________________________________________
leaky_re_lu_9 (LeakyReLU)    (None, 64, 64, 32)        0         
_________________________________________________________________
conv2d_10 (Conv2D)           (None, 64, 64, 32)        9216      
_________________________________________________________________
batch_normalization_v2_10 (B (None, 64, 64, 32)        128       
_________________________________________________________________
leaky_re_lu_10 (LeakyReLU)   (None, 64, 64, 32)        0         
_________________________________________________________________
conv2d_11 (Conv2D)           (None, 64, 64, 32)        9216      
_________________________________________________________________
batch_normalization_v2_11 (B (None, 64, 64, 32)        128       
_________________________________________________________________
leaky_re_lu_11 (LeakyReLU)   (None, 64, 64, 32)        0         
_________________________________________________________________
conv2d_12 (Conv2D)           (None, 32, 32, 32)        9216      
_________________________________________________________________
batch_normalization_v2_12 (B (None, 32, 32, 32)        128       
_________________________________________________________________
leaky_re_lu_12 (LeakyReLU)   (None, 32, 32, 32)        0         
_________________________________________________________________
conv2d_13 (Conv2D)           (None, 32, 32, 32)        9216      
_________________________________________________________________
batch_normalization_v2_13 (B (None, 32, 32, 32)        128       
_________________________________________________________________
leaky_re_lu_13 (LeakyReLU)   (None, 32, 32, 32)        0         
_________________________________________________________________
conv2d_14 (Conv2D)           (None, 32, 32, 32)        9216      
_________________________________________________________________
batch_normalization_v2_14 (B (None, 32, 32, 32)        128       
_________________________________________________________________
leaky_re_lu_14 (LeakyReLU)   (None, 32, 32, 32)        0         
_________________________________________________________________
conv2d_15 (Conv2D)           (None, 16, 16, 32)        9216      
_________________________________________________________________
batch_normalization_v2_15 (B (None, 16, 16, 32)        128       
_________________________________________________________________
leaky_re_lu_15 (LeakyReLU)   (None, 16, 16, 32)        0         
_________________________________________________________________
conv2d_16 (Conv2D)           (None, 16, 16, 32)        9216      
_________________________________________________________________
batch_normalization_v2_16 (B (None, 16, 16, 32)        128       
_________________________________________________________________
leaky_re_lu_16 (LeakyReLU)   (None, 16, 16, 32)        0         
_________________________________________________________________
conv2d_17 (Conv2D)           (None, 16, 16, 32)        9216      
_________________________________________________________________
batch_normalization_v2_17 (B (None, 16, 16, 32)        128       
_________________________________________________________________
leaky_re_lu_17 (LeakyReLU)   (None, 16, 16, 32)        0         
_________________________________________________________________
conv2d_18 (Conv2D)           (None, 8, 8, 32)          9216      
_________________________________________________________________
batch_normalization_v2_18 (B (None, 8, 8, 32)          128       
_________________________________________________________________
leaky_re_lu_18 (LeakyReLU)   (None, 8, 8, 32)          0         
_________________________________________________________________
conv2d_19 (Conv2D)           (None, 8, 8, 32)          9216      
_________________________________________________________________
batch_normalization_v2_19 (B (None, 8, 8, 32)          128       
_________________________________________________________________
leaky_re_lu_19 (LeakyReLU)   (None, 8, 8, 32)          0         
_________________________________________________________________
conv2d_20 (Conv2D)           (None, 8, 8, 32)          9216      
_________________________________________________________________
batch_normalization_v2_20 (B (None, 8, 8, 32)          128       
_________________________________________________________________
leaky_re_lu_20 (LeakyReLU)   (None, 8, 8, 32)          0         
_________________________________________________________________
conv2d_21 (Conv2D)           (None, 4, 4, 32)          9216      
_________________________________________________________________
batch_normalization_v2_21 (B (None, 4, 4, 32)          128       
_________________________________________________________________
leaky_re_lu_21 (LeakyReLU)   (None, 4, 4, 32)          0         
_________________________________________________________________
conv2d_22 (Conv2D)           (None, 4, 4, 32)          9216      
_________________________________________________________________
batch_normalization_v2_22 (B (None, 4, 4, 32)          128       
_________________________________________________________________
leaky_re_lu_22 (LeakyReLU)   (None, 4, 4, 32)          0         
_________________________________________________________________
conv2d_23 (Conv2D)           (None, 4, 4, 32)          9216      
_________________________________________________________________
batch_normalization_v2_23 (B (None, 4, 4, 32)          128       
_________________________________________________________________
leaky_re_lu_23 (LeakyReLU)   (None, 4, 4, 32)          0         
_________________________________________________________________
flatten (Flatten)            (None, 512)               0         
_________________________________________________________________
dropout (Dropout)            (None, 512)               0         
_________________________________________________________________
dense (Dense)                (None, 1)                 512       
=================================================================
Total params: 143,924
Trainable params: 142,796
Non-trainable params: 1,128
_________________________________________________________________
Loaded image 1/9600Loaded image 2/9600Loaded image 3/9600Loaded image 4/9600Loaded image 5/9600Loaded image 6/9600Loaded image 7/9600Loaded image 8/9600Loaded image 9/9600Loa
…
